…
ch.no_grad(): out_logits = model(encoded_batch, attention_mask=attn_mask).logits shift_logits = out_logits[..., :-1, :].contiguous() shift_labels = labels[..., 1:].contiguous() shift_attention_mask_batch = attn_mask[..., 1:].contiguous() perplexity_batch = torch.exp( (loss_fct(shift_logits.transpose(1, 2), shift_labels) * shift_attention_mask_batch).sum(1) / shift_attention_mask_batch.sum(1) ) ppls += perplexity_batch.tolist() 27Listing 2: Model specifications for GPT2 for language generation AutoModelForCausalLMWithValueHead( (pretrained_model): GPT2LMHeadModel( (transformer): GPT2Model( (wte): Embedding(50257, 768) (wpe): Embedding(1024, 768) (drop): Dropout(p=0.1, inplace=False) (h): ModuleList( (0-11): 12 x GPT2Block( (ln_1): LayerNorm((768,), eps=1e-05, elementwise_affine=True) (attn): GPT2Attention( (c_attn): Conv1D() (c_proj): Conv1D() (attn_dropout): Dropout(p=0.1, inplace=False) (resid_dropout): Dropout(p=0.1, inplace=False) ) (ln_2): LayerNorm((768,), eps=1e-05, elementwise_affine=True) (mlp): GPT2MLP( (c_fc): Conv1D() (c_proj): Conv1D() (act): NewGELUActivation() (dropout): Dropout(p=0.1, inplace=False) ) ) ) (ln_f): LayerNorm((768,), eps=1e-05, elementwise_affine=True) ) (lm_head): Linear(in_features=768, out_features=50257, bias=False) ) (v_head): ValueHead( (dropout): Dropout(p=0.1, inplace=False) (summary): Linear(in_features=768, out_features=1, bias=True) (flatten): Flatten(start_dim=1, end_dim=-1) ) ) Listing 3: GPT2 tokenizer specifications GPT2TokenizerFast( name_or_path=’lvwerra/gpt2-imdb’, vocab_size=50257, model_max_length=1024, is_fast=True, padding_side=’right’, truncation_side=’right’, special_tokens={’bos_token’: ’<|endoftext|>’, ’eos_token’: ’<|endoftext|>’, ’unk_token’: ’<|endoftext|>’}, clean_up_tokenization_spaces=True ), added_tokens_decoder={ 50256: AddedToken("<|endoftext|>", rstrip=False, lstrip=False, single_word=False, normalized=True, special=True),} 28Listing 4: Model specifications for IMDB-Gen reward model DistilBertForSequenceClassification( (distilbert): DistilBertModel( (embeddings): Embeddings( (word_embeddings): Embedding(30522, 768, padding_idx=0) (position_embeddings): Embedding(512, 768) (LayerNorm): LayerNorm((768,), eps=1e-12, elementwise_affine=True) (dropout): Dropout(p=0.1, inplace=False) ) (transformer): Transformer( (layer): ModuleList( (0-5): 6 x TransformerBlock( (attention): MultiHeadSelfAttention( (dropout): Dropout(p=0.1, inplace=False) (q_lin): Linear(in_features=768, out_features=768, bias=True) (k_lin): Linear(in_features=768, out_features=768, bias=True) (v_lin): Linear(in_features=768, out_features=768, bias=True) (out_lin): Linear(in_features=768, out_features=768, bias=True) ) (sa_layer_norm): LayerNorm((768,), eps=1e-12, elementwise_affine=True) (ffn): FFN( (dropout): Dropout(p=0.1, inplace=False) (lin1): Linear(in_features=768, out_features=3072, bias=True) (lin2): Linear(in_features=3072, out_features=768, bias=True) (activation): GELUActivation() ) (output_layer_norm): LayerNorm((768,), eps=1e-12, elementwise_affine=True ) ) ) ) ) (pre_classifier): Linear(in_features=768, out_features=768, bias=True) (classifier): Linear(in_features=768, out_features=2, bias=True) (dropout): Dropout(p=0.2, inplace=False) ) 29Listing 5: IMDB-Gen reward model tokenizer specifications DistilBertTokenizerFast( name_or_path=’lvwerra/distilbert-imdb’, vocab_size=30522, model_max_length=512, is_fast=True, padding_side=’right’, truncation_side=’right’, special_tokens={’unk_token’: ’[UNK]’, ’sep_token’: ’[SEP]’, ’pad_token’: ’[PAD]’, ’cls_
…
se, special=True), 100: AddedToken("[UNK]", rstrip=False, lstrip=False, single_word=False, normalized=False, special=True), 101: AddedToken("[CLS]", rstrip=False, lstrip=False, single_word=False, normalized=False, special=True), 102: AddedToken("[SEP]", rstrip=False, lstrip=False, single_word=False, normalized=False, special=True), 103: AddedToken("[MASK]", rstrip=False, lstrip=False, single_word=False, normalized=False, special=True), } 30Listing 6: Model specifications for Jigsaw-Gen reward model BertForSequenceClassification( (bert): BertModel( (embeddings): BertEmbeddings( (word_embeddings): Embedding(30522, 768, padding_idx=0) (position_embeddings): Embedding(512, 768) (token_type_embeddings): Embedding(2, 768) (LayerNorm): LayerNorm((768,), eps=1e-12, elementwise_affine=True) (dropout): Dropout(p=0.1, inplace=False) ) (encoder): BertEncoder( (layer): ModuleList( (0-11): 12 x BertLayer( (attention): BertAttention( (self): BertSelfAttention( (query): Linear(in_features=768, out_features=768, bias=True) (key): Linear(in_features=768, out_features=768, bias=True) (value): Linear(in_features=768, out_features=768, bias=True) (dropout): Dropout(p=0.1, inplace=False) ) (output): BertSelfOutput( (dense): Linear(in_features=768, out_features=768, bias=True) (LayerNorm): LayerNorm((768,), eps=1e-12, elementwise_affine=True) (dropout): Dropout(p=0.1, inplace=False) ) ) ) ) (pooler): BertPooler( (dense): Linear(in_features=768, out_features=768, bias=True) (activation): Tanh() ) ) (dropout): Dropout(p=0.1, inplace=False) (classifier): Linear(in_features=768, out_features=6, bias=True) ) 31Listing 7: Jigsaw-Gen reward model tokenizer specifications BertTokenizerFast(name_or_path=’unitary/toxic-bert’, vocab_size=30522, model_max_length=512, is_fast=True, padding_side=’right’, truncation_side=’right’, special_tokens={’unk_token’: ’[UNK]’, ’sep_token’: ’[SEP]’, ’pad_token’: ’[PAD]’, ’cls_token’: ’[CLS]’, ’mask_token’: ’[MASK]’}, clean_up_
…
